…
                                                                 de_saude_rescencia[0][0]         
                                                                 fl_simples_irregular[0][0]       
                                                                 nm_meso_regiao[0][0]             
                                                                 nm_micro_regiao[0][0]            
                                                                 fl_passivel_iss[0][0]            
__________________________________________________________________________________________________
dense (Dense)                   (None, 256)          96256       concatenate[0][0]                
__________________________________________________________________________________________________
dropout (Dropout)               (None, 256)          0           dense[0][0]                      
__________________________________________________________________________________________________
dense_1 (Dense)                 (None, 128)          32896       dropout[0][0]                    
__________________________________________________________________________________________________
dropout_1 (Dropout)             (None, 128)          0           dense_1[0][0]                    
__________________________________________________________________________________________________
dense_2 (Dense)                 (None, 64)           8256        dropout_1[0][0]                  
__________________________________________________________________________________________________
dropout_2 (Dropout)             (None, 64)           0           dense_2[0][0]                    
__________________________________________________________________________________________________
encoder_out (Dense)             (None, 16)           1040        dropout_2[0][0]                  
__________________________________________________________________________________________________
dense_3 (Dense)                 (None, 64)           1088        encoder_out[0][0]                
__________________________________________________________________________________________________
dropout_3 (Dropout)             (None, 64)           0           dense_3[0][0]                    
__________________________________________________________________________________________________
dense_4 (Dense)                 (None, 128)          8320        dropout_3[0][0]                  
__________________________________________________________________________________________________
dropout_4 (Dropout)             (None, 128)          0           dense_4[0][0]                    
__________________________________________________________________________________________________
dense_5 (Dense)                 (None, 256)          33024       dropout_4[0][0]                  
__________________________________________________________________________________________________
dropout_5 (Dropout)             (None, 256)          0           dense_5[0][0]                    
__________________________________________________________________________________________________
Data_out (Dense)                (None, 10)           2570        dropout_5[0][0]                  
__________________________________________________________________________________________________
Data_NaN_out (Dense)            (None, 9)            2313        dropout_5[0][0]                  
__________________________________________________________________________________________________
de_natureza_juridica_out (Dense (None, 33)           8481        dropout_5[0][0]                  
__________________________________________________________________________________________________
de_ramo_out (Dense)             (None, 33)           8481        dropout_5[0][0]                  
__________________________________________________________________________________________________
fl_rm_out (Dense)               (None, 2)            514         dropout_5[0][0]                  
__________________________________________________________________________________________________
natureza_juridica_macro_out (De (None, 6)            1542        dropout_5[0][0]                  
__________________________________________________________________________________________________
sg_uf_out (Dense)               (None, 6)            1542        dropout_5[0][0]                  
__________________________________________________________________________________________________
setor_out (Dense)               (None, 5)            1285        dropout_5[0][0]                  
__________________________________________________________________________________________________
nm_divisao_out (Dense)          (None, 85)           21845       dropout_5[0][0]                  
__________________________________________________________________________________________________
nm_segmento_out (Dense)         (None, 21)           5397        dropout_5[0][0]                  
__________________________________________________________________________________________________
fl_spa_out (Dense)              (None, 2)            514         dropout_5[0][0]                  
__________________________________________________________________________________________________
fl_antt_out (Dense)             (None, 2)            514         dropout_5[0][0]                  
__________________________________________________________________________________________________
fl_veiculo_out (Dense)          (None, 2)            514         dropout_5[0][0]                  
__________________________________________________________________________________________________
fl_optante_simples_out (Dense)  (None, 2)            514         dropout_5[0][0]                  
__________________________________________________________________________________________________
fl_optante_simei_out (Dense)    (None, 2)            514         dropout_5[0][0]                  
__________________________________________________________________________________________________
sg_uf_matriz_out (Dense)        (None, 27)           6939        dropout_5[0][0]                  
__________________________________________________________________________________________________
de_saude_tributaria_out (Dense) (None, 6)            1542        dropout_5[0][0]                  
__________________________________________________________________________________________________
de_saude_rescencia_out (Dense)  (None, 2)            514         dropout_5[0][0]                  
__________________________________________________________________________________________________
fl_simples_irregular_out (Dense (None, 2)            514         dropout_5[0][0]                  
__________________________________________________________________________________________________
nm_meso_regiao_out (Dense)      (None, 19)           4883        dropout_5[0][0]                  
__________________________________________________________________________________________________
nm_micro_regiao_out (Dense)     (None, 73)           18761       dropout_5[0][0]                  
__________________________________________________________________________________________________
fl_passivel_iss_out (Dense)     (None, 2)            514         dropout_5[0][0]                  
==================================================================================================
Total params: 271,087
Trainable params: 271,087
Non-trainable params: 0
__________________________________________________________________________________________________
